browser-profiles/Real/Default/optimization_guide_prediction_model_downloads/ac3e06b1-52d6-48b5-8f77-1a9c9f8959f6/model.tflite (tflite, 410364 bytes, 166 tensors)

context_transformer_0/bottleneck_input/norm/add f4 [32]
00000000: af67 aa3a 404c 3d3e 3e9a 2f3d 7a35 00bd
00000010: bc9b 533d a9f3 c83c 8ff2 12be 824a fe3d
00000020: e2e9 2b3c d06c 133d 6642 7b3c 7d86 f63b
00000030: 52f1 c3bc b6e4 9d3c 3a5d 97bd 33b9 77be
00000040: b2be c23c 4cdc fb3b 50fb 8c3c 3ace 36be
00000050: 0269 e23c 60c4 79bd f299 683d 7e47 5ebd
00000060: 00d6 43bb 4ab3 b73d 1add a0bc cfaa fe3c
00000070: 9906 36be a2f8 833a a2ee 52bc 9abf d23d
0.0013000871 0.18486118 0.042871706 -0.031301 0.05166219 0.024530249 -0.14350341 0.12416555
0.010492774 0.035992444 0.015335655 0.0075233565 -0.023918781 0.019274097 -0.073908284 -0.24191742
0.023772571 0.0076861735 0.017209679 -0.17852107 0.027637962 -0.060978293 0.05678744 -0.0542674
-0.0029882193 0.089697435 -0.01963668 0.031087307 -0.17775954 0.0010068605 -0.012874277 0.10290451

context_transformer_1/bottleneck_input/norm/add f4 [32]
00000000: 8e77 983d c8de 9fbd 2b7e dcbc a11c ef3d
00000010: 8103 de3c 9288 b63d f812 d0bb ea05 95bd
00000020: fe50 ddbd f454 bbbc f5a2 cdbd ca91 cc3d
00000030: e0ea 9f3c f5e5 eebd d5ee f23d 20b4 9f3d
00000040: 07a3 a8bc a53d 213e 1783 0d3d 9418 fabd
00000050: 723e 913c 3f7f 6abd 9e37 9abc b3b6 03be
00000060: 247e eabd be37 41bd 6e2f 5b3d 6392 c5bc
00000070: 4384 10bd 6cf2 203d a5bd 27be 2151 3c3d
0.07444678 -0.07806164 -0.02691563 0.116753824 0.02710128 0.089127675 -0.0063499175 -0.07276519
-0.10806464 -0.022867657 -0.10040847 0.099887446 0.019521177 -0.116649546 0.1186196 0.07798028
-0.02058555 0.15746172 0.034548845 -0.12211719 0.017729972 -0.057250258 -0.018825348 -0.12862663
-0.11449841 -0.0471723 0.05351203 -0.024117654 -0.035282385 0.03929369 -0.16380937 0.045975808

mention_transformer_0/bottleneck_input/norm/add f4 [32]
00000000: 22d4 bc3d bade 57be a6a1 053c fada d8bd
00000010: 6d29 6cbd e073 58bd 92b4 343e aa88 42be
00000020: 883d 0abe dc17 92bc 283c 0d3e 4836 9abd
00000030: 271b 9fbd 7f6a c53d fc0f 9a3d cac4 233e
00000040: 0f4b 9bbd ea77 1f3e 51e0 8e3c b602 283e
00000050: 3452 01be 6770 573e 24e9 39be 7f43 45bc
00000060: 7eae 3fbe 0537 8ebd cb58 d2bc d2fc 1fbd
00000070: 240f 1b3d 6282 68bd 1132 5ebe 60c3 4b3e
0.092201486 -0.21081057 0.008156216 -0.105886415 -0.057656694 -0.052844882 0.17647007 -0.18997446
-0.13500035 -0.017833643 0.13792479 -0.075298846 -0.07768851 0.09639453 0.0752258 0.15993038
-0.07582676 0.15573087 0.017440947 0.16407284 -0.12629014 0.21038972 -0.18155342 -0.012040018
-0.18718907 -0.06944088 -0.025677105 -0.039059468 0.037856236 -0.056764968 -0.21698786 0.19898748

mention_transformer_1/bottleneck_input/norm/add f4 [32]
00000000: 0640 913d 93cc 71be 0c34 f23c de5a ba3e
00000010: 9571 c4be 36d5 183f 11c0 00bf fa6d 1bbf
00000020: a001 e7bd 94c5 b5bc 0ccd 93be a9d1 98be
00000030: fbc6 c5bd 4d00 fdbe ee49 42be 86e3 8c3e
00000040: 8e50 fe3d fec8 0cbd 0466 c3bc 4dcc 7c3e
00000050: 83c2 a3be 6578 133e 7bc4 8f3e 723e ebbe
00000060: 143d ccbe fe95 d1bd 6b3e a2bd 9def 06bd
00000070: 7015 c13d 064d 363d 2080 fdbd f35c a83d
0.070922896 -0.23613195 0.029565834 0.3639745 -0.38367906 0.59700334 -0.5029307 -0.60714686
-0.11279607 -0.02218894 -0.28867376 -0.29847458 -0.09657093 -0.49414292 -0.18973514 0.27517337
0.12417708 -0.03437137 -0.023852356 0.2468731 -0.31984338 0.14401396 0.2807959 -0.4594608
-0.3989035 -0.10233687 -0.079220615 -0.032943357 0.09427917 0.04450705 -0.123779535 0.08220854

context_transformer_0/attention/value/add;context_transformer_0/attention/value/einsum/Einsum;context_transformer_0/attention/value/add/ReadVariableOp/resource f4 [32]
00000000: a771 02bd 0ca0 403d c19a d83d bf18 6b3c
00000010: 9534 9fbd 7918 973c 07d4 62bd 336e b03d
00000020: 49ba 863c 94c5 08bd 502f 533d 6359 c0bd
00000030: 7cb3 1c3d 80aa 293a bb36 5a3d cdfd 1fbc
00000040: ce75 7a3d 4656 ddbc bd0b 80bc 042f 3c3d
00000050: c4e8 343d 5536 34bc 34a6 e6bc fc8f 75bd
00000060: 28b4 97bc fb2e 41bd 2cab 2c3d b0fc 47bd
00000070: 3618 05bc c8a9 0bbd b83c 25bd 737b fa3c
-0.03184667 0.047027633 0.10576392 0.014349162 -0.07773701 0.018444287 -0.055377986 0.08614769
0.01644625 -0.03339155 0.051558793 -0.09392049 0.038257107 0.0006472245 0.05327485 -0.009765101
0.061147504 -0.027018677 -0.015630597 0.045943275 0.044167295 -0.010999282 -0.028155424 -0.059951767
-0.018518522 -0.047163945 0.04215543 -0.048824966 -0.008123448 -0.034097463 -0.04034111 0.030576443

context_transformer_0/bottleneck_input/norm/mul f4 [32, 32]
00000000: 12d1 a2be c26d 163e 63e8 4d3e 0299 3cbe
00000010: 894c d23d fac4 423e deb7 923e 7f08 6b3d
00000020: 2f3b 083e 17f6 4f3d 36a6 6fbe 126a 23be
00000030: 3e4c c93d 6754 ed3c cb26 e0ba 09d2 913e
00000040: 9d77 053e 2b90 943d d042 09bd a291 be3e
00000050: a01d 5d3e 6fb7 353e b561 89be 91cd 0c3e
00000060: e593 8abd 5579 153e 8e0f c7bd a47e d43b
00000070: 2ff7 b83e 6653 75be beff d9bd f4ec debd
00000080: 5471 1bb8 97c1 83bd f185 903e 841e febc
00000090: db8c b1bd 5f5a f73d 5d96 c53d e469 873d
000000a0: bd76 2fbe a212 773b 5290 7e3e b0ad 053e
000000b0: 5339 85bd 149d 183e e0f9 e93d 35b7 9c3d
000000c0: f02d 92be c364 36be b3d9 d73d 2b61 7dbe
000000d0: b7e8 5cbd a2dd c33d 8215 dbbd 1411 213c
000000e0: e434 9b3c e455 b8be d11c e5bd 75e7 28be
000000f0: d5c0 a4bd ea81 52be 4c7f 85bd ac1e a73e
00000100: 6eca 993e 82e1 653e 6884 7e3e 32eb 123e
00000110: 5889 e23d fd3f 12be 8f5f 9cbe cb36 823e
00000120: c982 7bbe 3a87 97bd 1349 abbb e1fe cbbc
00000130: 48b0 073e 7038 2f3d fc40 4f3e b5be b3bc
00000140: afb1 32be 0296 2a3e a4d7 c63e 07c8 76be
00000150: 6427 54be 1e6b 233e 553b c63d f32e 243d
00000160: 01e5 43bd eb69 f7bc 5991 0f3e 681c 03be
00000170: b12e 813d 641a fabd 684f 143e ee32 f83d
00000180: 0e5d 5b3d e8bc 0c3e e636 da3d 0b9f 71bc
00000190: d0a7 683e ecd2 8e3e 0f46 e93d 181c 30be
000001a0: 47d1 cbbc fe6b 82bc 9687 2d3e b829 5abe
000001b0: c5c6 f23d 5573 c33d 5334 6d3e bef0 da3d
000001c0: bfdd 1b3e 961f 2a3e 5f92 11be 3766 2b3e
000001d0: 4440 f4bd 6281 843e 40c0 94bd c3af 313e
000001e0: d5ea e73c 9069 d5be 73c9 3d3d 4003 083e
000001f0: f7c1 283e f96c 6dbe eb88 c8bc de4d ce3d
00000200: cadd 923d a32c 1dbe 30ef d8bd 22aa 1abe
00000210: 3ae6 a7ba db61 90bd 9e57 30be 24a9 6f3e
00000220: c58f b1bc 4d00 75bd 419a 1d3d 123e 203d
00000230: aa82 d23d c016 b0bd 2718 dc3d 4a41 90bc
00000240: 8676 d6bc 99e4 983d c123 983e 3691 073d
00000250: 93b3 01be e920 943d c771 94bb 21c8 283b
00000260: d211 8ebd 2970 b53d 9b85 12bd e896 89be
00000270: 97fc b53c eb07 023e cee5 edbd 5f93 0a3d
00000280: 5b8c 593e b0cb 2bbe 272c fd3c a344 65bd
00000290: ef77 883c 7f67 17b9 070b 5a3e 7f5a 02be
000002a0: 3e63 17be e86c 1e3e 652f 503e 56db a4bb
000002b0: 2820 bdbd 4a01 d03d 9fc1 95be 26d2 0ebe
000002c0: ad0d 223d d0f6 74bd 98a0 8cbe 39af f23a
000002d0: 85cd 0cbe b960 f83c 8896 d53d 5f52 053e
000002e0: 0697 283c 0e71 04bd a53d a8be 10ab 77bb
000002f0: 3f2c 7fbd 1bec 16bd 2f50 21bd 7edf 28bd
00000300: 44c0 003d 4d49 fb3d 333c ac3e 1c87 afbd
00000310: 8005 353d 0a15 043d 58f1 d9be b92e 0f3e
00000320: ff0d 22be 3e08 0fbe e1f6 5bbe 492a f5bc
00000330: 4325 d43e 95b5 bfbb 638b 693e b22f 113d
00000340: 40ed 9c3d 5548 16be 5b0e 5aba a9f9 f53d
00000350: 7398 94be 0f4e 8a3d 81d4 47be 8e91 9abd
00000360: 623e dbbd 13d0 80be 5926 183e 8688 64bd
00000370: 7cbc a5bd aa10 773e 4742 843e b720 cb3d
00000380: a9ef 553f d0c9 cc3e 186e 99be 299f 2dbf
00000390: db6a e43d fde7 5f3e 089c da3d 604d b7bd
000003a0: 9aec 72be 8451 25be 4b07 39bf d278 853e
000003b0: da75 c63d dcd1 de3d 9a8c 87be ddfa 7e3e
000003c0: b154 11be a101 8cbe 3906 41be f902 efbc
000003d0: 77ef dc3d 5c71 223f 110c 07be 9160 28be
000003e0: 72ff b93e a6a6 c43c 2abf a3bb e070 3d3c
000003f0: f6b4 4c3f 46af 073f 2ae7 e3be 7932 97be
-0.31800133 0.14690307 0.2010818 -0.18417743 0.10268504 0.19020453 0.28655905 0.05738115
0.13303827 0.0507718 -0.23403248 -0.15958431 0.09828995 0.02897091 -0.0017101405 0.28480557
0.1303391 0.0725406 -0.033510983 0.37220484 0.21593332 0.17745756 -0.26832357 0.13750292
-0.0676649 0.14597066 -0.09719764 0.0064848233 0.36126086 -0.23957595 -0.10644482 -0.10885039
-3.7060425e-05 -0.06433409 0.2822719 -0.03102041 -0.08669444 0.12077784 0.0964782 0.06611994
-0.17135139 0.0037700315 0.24859741 0.13054538 -0.06505074 0.1490367 0.11424613 0.076521315
-0.28550673 -0.17811875 0.1053957 -0.24744098 -0.05393287 0.095637575 -0.10697462 0.009830732
0.018946119 -0.3600303 -0.11187137 -0.16494544 -0.08044592 -0.20557371 -0.065184206 0.32640588
0.30037254 0.22449306 0.24855196 0.14347532 0.110613525 -0.14282222 -0.30541655 0.2543243
-0.2456161 -0.07398839 -0.005227217 -0.02490181 0.1325084 0.042778432 0.20239633 -0.021941522
-0.17450593 0.16658786 0.38836396 -0.24099742 -0.20718151 0.1595883 0.096792854 0.040083837
-0.047825817 -0.030201873 0.1402029 -0.12803805 0.06307734 -0.12212065 0.14483416 0.12119089
0.05355554 0.13743937 0.10655002 -0.014747391 0.22720265 0.27895296 0.11390316 -0.17198217
-0.024880065 -0.015920635 0.16946253 -0.21304977 0.118543185 0.09543482 0.23164491 0.10690449
0.15221308 0.16613612 -0.14215992 0.1673821 -0.1192632 0.2587996 -0.07263231 0.17352204
0.028310219 -0.416821 0.046334695 0.1328249 0.16480242 -0.23186101 -0.02447935 0.10073446
0.07171209 -0.15349059 -0.105924964 -0.15103963 -0.0012809702 -0.070499144 -0.17220923 0.23404366
-0.021675 -0.05981474 0.038477186 0.039121695 0.102788284 -0.08598089 0.10746794 -0.017609257
-0.026179563 0.074654765 0.29714778 0.03309747 -0.12666158 0.072328396 -0.004530165 0.0025754052
-0.06936993 0.088592835 -0.035771947 -0.26872945 0.02221517 0.12698333 -0.116160974 0.03383195
0.21244948 -0.1677692 0.030904843 -0.05597366 0.016658751 -0.00014439037 0.21293269 -0.12729834
-0.14783952 0.15471232 0.2033058 -0.0050310297 -0.09234649 0.10156496 -0.29249284 -0.13947353
0.039563823 -0.05980569 -0.27466273 0.0018515355 -0.13750274 0.030319558 0.10429102 0.13019703
0.010289913 -0.03233438 -0.3285953 -0.003779117 -0.062298056 -0.03684626 -0.03938311 -0.041228764
0.03143336 0.122698404 0.33639678 -0.08570692 0.0441947 0.032246627 -0.42566943 0.13982667
-0.15825652 -0.13967988 -0.21480896 -0.02992739 0.41434678 -0.0058505037 0.22807078 0.035445876
0.07662439 -0.1467603 -0.0008318179 0.120105095 -0.2902256 0.0675317 -0.19514658 -0.075472936
-0.10705258 -0.25158748 0.14858378 -0.05579426 -0.08092591 0.2412745 0.25831816 0.09918349
0.8356882 0.3999772 -0.29966807 -0.67820984 0.111531936 0.2186584 0.10674292 -0.08950305
-0.23723069 -0.16144377 -0.72276753 0.2606874 0.09690447 0.10879871 -0.26474458 0.24900384
-0.14192463 -0.27344993 -0.1885003 -0.029176222 0.10787862 0.6345422 -0.13188197 -0.16443087
0.36327702 0.024005245 -0.0049971538 0.011562556 0.79963624 0.5300182 -0.44512302 -0.29530695

context_transformer_0/kq_shared_bottleneck/norm/mul;context_transformer_0/kq_shared_bottleneck/norm/add;context_transformer_0/attention/key/einsum/Einsum;context_transformer_0/attention/key/add;context_transformer_0/attention/value/einsum/Einsum;context_transformer_0/attention/key/add/ReadVariableOp/resource f4 [32]
00000000: 69fe 98be 03b0 033d 66d5 853b 6732 af3c
00000010: c50a 803b eae9 1b3d 410f c9bc 2302 323c
00000020: 8a30 053d 0d7e 9abd 6881 7ebd a30d 133d
00000030: 0830 68bd c332 f8b9 481b 2ebd 091f 87bd
00000040: 72a4 2d3e a661 b9bd 384f ccbd f975 093e
00000050: bba0 883e faf1 163e 7ab7 f9bd e07e 49be
00000060: bcab ffbd a207 f7bd ae3b e03d b578 2c3d
00000070: db0c c23d a3f5 673d dfdf ca3d 707a 603d
-0.298816 0.03215028 0.004084277 0.021386338 0.003907534 0.038064875 -0.024543406 0.010864767
0.032516994 -0.075435735 -0.06213513 0.035901677 -0.05668643 -0.00047340067 -0.042506486 -0.06597716
0.16957262 -0.09051828 -0.09976047 0.13423909 0.26685128 0.14740744 -0.121931985 -0.19677305
-0.124839276 -0.12062003 0.10948883 0.042107303 0.09475108 0.05663074 0.09905981 0.054804265

context_transformer_0/kq_shared_bottleneck/norm/mul;context_transformer_0/kq_shared_bottleneck/norm/add;context_transformer_0/attention/key/einsum/Einsum;context_transformer_0/attention/key/add;context_transformer_0/attention/value/einsum/Einsum;context_transformer_0/attention/key/add/ReadVariableOp/resource1 f4 [32, 32]
00000000: 91e4 0a3e 7418 bfbe c021 be3d 1ba6 4b3e
00000010: 476b eb3e 49d7 353e 5656 f0be 33be 633e
00000020: 5c8f 49be 9934 d2bd c667 b7bd defb f6be
00000030: ea85 4e3e 9f53 a03e b4ba 98be 8927 a13e
00000040: 30e2 2fbe ed21 0dbf 9aa2 2cbe fcbf 263e
00000050: b50c 9dbe 37dd 833e aab7 a43d da38 d4bd
00000060: e8cf c0be 2605 5e3e e9eb 5abf 44d6 2fbf
00000070: 6e29 e43e 3793 9c3e 26da 323f 5078 13bd
00000080: 2e47 99bd 7cd1 6e3e 4854 0b3e 416a 533e
00000090: 1e88 773e 1d0c 983d 9421 9f3d 6de8 323e
000000a0: 236f 04be b698 c7bd 0234 3bbe 3646 ed3c
000000b0: 9e2f a03d e506 16be b31c efbc 0179 b9bd
000000c0: da70 8dbe 7aa3 1e3e 349d 4ebe 1134 783d
000000d0: 0bf7 2cbe 288d 193e 26f0 6abe 8a7d 31be
000000e0: d5ed febd 325f efbd 7c08 0b3e feed 2a3e
000000f0: ffbe 88bd a399 71bd 7608 73be c4a9 2b3e
00000100: d1fe 0b3e c51a 03be 77d0 3dbe fab3 54be
00000110: 7735 64be b2a1 313c 7ee0 92bd 2c8f 2ebe
00000120: 3dae fa3d 8cad 4f3d 9b9c 283e 1b32 263d
00000130: eb5b d0bd 4012 f53d 8de5 fe3c 015b 893d
00000140: b43c 803e 16b9 32be da2a 5f3e 1a36 abbd
00000150: f720 273e 9fcd 48be 16cb 583e 5e56 123e
00000160: 53f5 073e 1987 a53d d014 e4bd 4324 50be
00000170: 0b05 1c3e b370 6f3d 96aa f63d 2ea6 0abe
00000180: bddb cebd c450 6c3e 1b71 313e 4707 493e
00000190: d614 953e 548b 043e a92e 873d eb18 2a3e
000001a0: fb18 04be fe7c debd 0e8d 2cbe 7f9a babc
000001b0: b2c2 8d3d 3197 44be 7040 9fbc 5b4e 08be
000001c0: 662d 7fbe 6f30 2e3e 0568 74be c769 ac3d
000001d0: 6358 50be ee1c 363e ea80 86be f205 53be
000001e0: 615b 26be e7af f5bd 0f66 463e 6c3f 5b3e
000001f0: 605a a0bd 32cf 853c 0b0c 56be 6a14 1c3e
00000200: 0550 0a3e ca69 83be 820f 21be a7ac 5fbe
00000210: 0471 a3be 6c67 cfbd a8c3 78bd c7c9 47be
00000220: dacb ee3d cbbf dd3d e4c3 483e 9260 7c3b
00000230: afbc aabd 647e 503e 9d07 d83c a6b0 073e
00000240: a5aa 8b3e 6a4c 3abe c168 703e 821e e0bd
00000250: 9aae 4a3e d984 5abe abc9 613e b2b5 6a3e
00000260: 63d0 2f3e 0731 e43d e225 3bbe 5930 46be
00000270: 1441 943d 678d 88bd 5e67 173e 00c0 3bbe
00000280: c1c9 32be ea64 c0bc 4bf7 243e 84f9 563e
00000290: 4e98 603e 6355 47be f5b6 4f3e 9534 443e
000002a0: c10a d3bd e832 aabd 01b3 1dbe 44ea c23d
000002b0: 2553 203e 6de1 a4bd 3804 86bd 993a b73c
000002c0: f3c3 57be 0684 4b3e 1a46 26be 1120 c53c
000002d0: ab36 89bc 4b22 1d3e 5851 abbe 45d7 c8bd
000002e0: f7db 48bd 8c72 9d3c 4830 02be 705f 933d
000002f0: 4368 0ebe 23dd 9cbe eb9b 8abe 1887 283e
00000300: 5ef4 f43d 5c92 5fbe 17d3 0fbe 129e 46be
00000310: 1f77 82be a7e2 b2bd 664f 35bd 115c 34be
00000320: 9230 073e f16c c83d 5db5 3e3e 4129 083d
00000330: 2b57 92bd 37d7 243e b3f0 573c 4255 ba3d
00000340: e65b 6f3e 959f 04be 91f9 583e bcbe 97bd
00000350: 9989 4d3e f376 15be 97cc 8b3e 557c 1e3e
00000360: 59f6 153e cb0f bb3d b87e 15be 354d 56be
00000370: 8e9c 933d 3ddc ef3c 214e 443e eac6 10be
00000380: ba57 1e3e 10de f4bc 0695 5bbe 0efd 62be
00000390: 8b59 66be 7ff8 f43d eb23 34be 2c8e 30be
000003a0: aa42 f83d 9a11 d73d 2e71 5d3e b368 7bbd
000003b0: 1812 32be b2c7 813d 0507 c23d c935 3c3d
000003c0: 6e50 783e 9dbf 1ebe 14de 3e3e f3fd 7bbd
000003d0: 7999 963d 0f68 56be 0e7a 923e 0bc6 003e
000003e0: 7956 c73d 75dc bd3c 6b99 6d3c a594 06be
000003f0: 202c 2d3e 629b 2f3e b3d5 483e 9382 3abe
0.13563754 -0.37323344 0.09283781 0.19887583 0.45980284 0.17757906 -0.4694087 0.22240524
-0.19683594 -0.102639385 -0.0895534 -0.48239034 0.20168272 0.31313798 -0.29829943 0.31475475
-0.17176127 -0.5512989 -0.16858903 0.16284174 -0.30673757 0.2575471 0.08042844 -0.10362406
-0.3765862 0.21681651 -0.8551622 -0.6868632 0.44562858 0.30581066 0.6986412 -0.03600341
-0.074842796 0.233221 0.1360637 0.20646001 0.24173018 0.074241854 0.077700764 0.17471476
-0.1293302 -0.09745924 -0.18281558 0.028964143 0.07821582 -0.14651068 -0.02918849 -0.09056283
-0.2762516 0.15492049 -0.20177156 0.06059653 -0.16891114 0.14995253 -0.22943172 -0.17333046
-0.124477066 -0.11688079 0.13577455 0.1669235 -0.066770546 -0.05898441 -0.23733696 0.16763979
0.13671423 -0.1280318 -0.18536554 -0.2077178 -0.2228602 0.010841774 -0.07171725 -0.17046803
0.122402646 0.050702617 0.1646599 0.040575128 -0.10173782 0.119663715 0.031115318 0.06706811
0.25046313 -0.17453417 0.2179369 -0.083599284 0.16321169 -0.19609688 0.21171221 0.14290759
0.13277178 0.080824085 -0.11136782 -0.20326333 0.15236299 0.058457088 0.120442554 -0.13539955
-0.101005055 0.23077685 0.17328303 0.19631682 0.2911746 0.12943774 0.066006966 0.16611068
-0.12900154 -0.10863684 -0.16850683 -0.022778748 0.06921901 -0.191983 -0.019439906 -0.1331114
-0.24919662 0.17010663 -0.23867805 0.08418613 -0.20346217 0.17784473 -0.2627023 -0.20607737
-0.16245796 -0.11996441 0.1937487 0.21410912 -0.07829738 0.01633415 -0.20903032 0.15242162
0.13507088 -0.25666648 -0.15728572 -0.21843205 -0.31922162 -0.10127148 -0.060733467 -0.19510566
0.11659975 0.10827597 0.19605976 0.0038509709 -0.0833677 0.20360714 0.026370818 0.1325098
0.2727863 -0.18193212 0.2347746 -0.10943319 0.19793168 -0.2133974 0.22049586 0.22920874
0.17169337 0.11142164 -0.1827617 -0.1935438 0.07238975 -0.06667595 0.14785525 -0.18334961
-0.17459776 -0.02348562 0.1610996 0.2099362 0.219331 -0.19466166 0.20284636 0.19160683
-0.103047855 -0.08310491 -0.15400316 0.09517339 0.15656717 -0.08050809 -0.065437734 0.022366809
-0.21070842 0.19874582 -0.16237679 0.024063142 -0.0167497 0.15345113 -0.33460498 -0.098066844
-0.0490379 0.01921966 -0.1271373 0.07195938 -0.1390696 -0.30637464 -0.2707208 0.16457784
0.11960672 -0.21833175 -0.14045368 -0.19396237 -0.25481507 -0.08734637 -0.044265173 -0.17613246
0.13202122 0.09786404 0.18623872 0.033242468 -0.07145532 0.16097723 0.013179946 0.09098293
0.233749 -0.129515 0.21188952 -0.074094266 0.2007202 -0.14596157 0.27304527 0.15477116
0.14644755 0.09133872 -0.1459912 -0.2092789 0.07207595 0.029279822 0.19170429 -0.1413838
0.15463153 -0.029891044 -0.21443567 -0.22166845 -0.22495095 0.11961459 -0.17591827 -0.17241734
0.1212209 0.10501404 0.21625206 -0.061379146 -0.17389715 0.06336917 0.09473995 0.04594973
0.24249431 -0.15502782 0.18639404 -0.06152148 0.07353491 -0.20938133 0.28608745 0.12575547
0.0973329 0.023176411 0.01450191 -0.13142641 0.16911364 0.17149118 0.1961277 -0.18213873

context_transformer_0/kq_shared_bottleneck/norm/mul;context_transformer_0/kq_shared_bottleneck/norm/add;context_transformer_0/attention/query/einsum/Einsum;context_transformer_0/attention/query/add;context_transformer_0/attention/value/einsum/Einsum;context_transformer_0/attention/query/add/ReadVariableOp/resource;context_transformer_0/attention/Mul;context_transformer_0/attention/Mul/y f4 [32]
00000000: e361 d63d 1814 4dbe f56a 423e 39d5 58be
00000010: 4cec 5f3e 5816 3fbe ed45 473e d5aa 493e
00000020: 8f92 77bd 3b3e 233e dc14 643e 470c 67be
00000030: 8aed 143e 4639 f9bb 5562 133e 4ff6 cf3d
00000040: d4a4 203e dd59 bb3d 7412 24be d591 2f3e
00000050: 8212 bebd bea5 033e 12ff 23be 5cd4 cbbd
00000060: fbea 63bd 8637 88bd ff14 ad3d 984b be3d
00000070: f37e 963d 09db ab3d 5859 cc3c 73e4 383d
0.10467889 -0.20027196 0.18986113 -0.21175088 0.21867484 -0.18660867 0.19460268 0.19694073
-0.060442504 0.15941708 0.22273582 -0.22563277 0.14543739 -0.0076057045 0.1439298 0.101544015
0.15687877 0.091479994 -0.16022664 0.17145474 -0.09280874 0.12856194 -0.1601527 -0.09952614
-0.055644017 -0.06651215 0.0845127 0.09291762 0.073484324 0.08391387 0.024944946 0.04513974

context_transformer_0/kq_shared_bottleneck/norm/mul;context_transformer_0/kq_shared_bottleneck/norm/add;context_transformer_0/attention/query/einsum/Einsum;context_transformer_0/attention/query/add;context_transformer_0/attention/value/einsum/Einsum;context_transformer_0/attention/query/add/ReadVariableOp/resource;context_transformer_0/attention/Mul;context_transformer_0/attention/Mul/y1 f4 [32, 32]
00000000: f0ae f6bb 7ff1 8e3e 97af 823c 558c dd3d
00000010: b1f7 03bc 8738 f73c cd6d 23be 53a7 243b
00000020: 602c 5abc 7061 693e d0ea d43c 4e08 88be
00000030: 9ab4 f8bb ac23 363d 5b78 a43e 58f6 873d
00000040: d1a4 2d3c 9034 cdbd fa60 cabc 8800 51bb
00000050: 37e4 5b3c d2bf f9bc d0de f0bd 59d2 aa3c
00000060: ff10 dbbc 6e6e 173d 95cc 99be aac9 24be
00000070: 2a42 e03e ebf9 adbc 5578 a3be cb29 eebd
00000080: 3105 5fbd ce2e 05bc 828c ad3c ed59 58bb
00000090: c865 a2bc bf82 993d a4c6 d13d 0692 0b3d
000000a0: 3e13 bbbc c523 0a3c cc5d 063d 37f9 b73b
000000b0: 477c 7d3b 2530 1c3d cb2b 31b9 85a8 d93c
000000c0: 8327 043d 022b 53bd 87ca 753c 6f49 2b3d
000000d0: 0aed 853c c813 313d 857a 723d 0a63 243d
000000e0: 3fe9 6abc 7e4b 853b e12a 893c c221 45bc
000000f0: f8b4 1ebd 5389 983d a800 863c c08d c33b
00000100: 5637 943d 7128 c63b 2f2e 37bc fed5 37b9
00000110: 317b d93c e0f9 91bd 17a9 fabd 6b65 10bd
00000120: 7a7f db3c e833 8b3c 11da 1abd 4e21 aebc
00000130: 5ab9 7a3a 8840 09bd 9bfb b23b b96f a5bc
00000140: 5ae0 10bd f1ad 773d 5548 8bbc 3185 4dbd
00000150: 8c92 aebc 963c 25bd cce7 51bd cd0c 1dbd
00000160: 3230 c73b d8e3 37bc 5105 363c 4973 243c
00000170: 9e46 f63c c6c0 7abd 276f 3c3d 6022 01bb
00000180: c8b2 56bd d8d0 fe3b d300 a63b 9285 09bc
00000190: 7120 04bd b56d c03d b352 db3d 92f7 d13c
000001a0: 5794 c3bc 41dd 8e3b 9418 233d d609 923c
000001b0: 7850 25bc c91a 273d 19af 863b 5258 a13c
000001c0: 77f0 1b3d 6cdb 68bd 27a0 d13c d2d8 433d
000001d0: e111 873c 1d86 f53c 0e79 ab3d 313d 3e3d
000001e0: 1d9a fabc 4294 c5bb 981d 323d 1a6d 85bc
000001f0: b4b0 11bd fe44 cf3d 9e37 483c 9ef8 adbb
00000200: 5fab 803d bc33 c4bc afda 3abc 463a a83b
00000210: 51c3 163d b7a9 dbbd 6c98 cbbd da06 20bd
00000220: d70a 283d 9aff 9fbb a0f8 1ebd eaae 89bb
00000230: 3b89 9f3c f281 14bd 9367 e7ba 8c1c 7fbc
00000240: 9dd9 4abd 5b64 713d b1da 36bc f1eb 7dbd
00000250: fee4 cabc bc41 27bd b826 95bd ecf1 22bd
00000260: 875c 163d 77cc 27bc 0408 2fbd 8f75 ba3b
00000270: 6907 a63c 445a c5bd d2dc 973b 4027 073c
00000280: 25be b8bd 9609 e5bd dcdd 233d 0c4d 103d
00000290: eb37 b8bc 1661 b6bc c2eb 013e 4965 803d
000002a0: f0d5 11bd 423a babc 1b6f 8e3c 0c56 b23c
000002b0: 7b7e 583d 8a60 323d b36e 15bd a69f 0b3d
000002c0: 7931 0b3d 4dd0 2dbd 3676 823c 2914 cb3c
000002d0: ec11 a03d bff4 3a3d 4215 19bb 4652 433d
000002e0: e1bc 073d 7ba1 263d c2b1 8abd 2136 52bd
000002f0: 5b51 8dbd 91cd 1bbc 13c8 34bd 5067 9b3c
00000300: 2c3f 533d 0ec2 703b 6a24 97bc 6443 773c
00000310: 600e ab3c 784f a7bd 2de3 cbbd b31e 12bd
00000320: dc0e 083d 60fa a03b 89f8 cabc 0ac3 98bc
00000330: 0185 5f3b 58dc 27bd a0dc c4bb 7343 dbbc
00000340: b579 1dbd 6a30 843d 9e2e d5bc 41aa 2fbd
00000350: dbbb bfbc f747 ffbc 62bd a7bd 2a1e 38bd
00000360: 66ed 9e3c 0f5e 9fbb 710f 02bd 5800 463c
00000370: 1959 d63c bc35 a6bd 67a8 99ba 990d 363c
00000380: e600 ae3d f924 6e3d 7e08 27bd b4b6 02bd
00000390: c89c 1a3d 5af8 d9bc 1c74 06be a174 2ebd
000003a0: ed83 2e3d 3ed5 a53c d0d8 ffbc ccc7 6dbc
000003b0: a94f adbc ce0e 21bd 9d6d b03c afaa 19bd
000003c0: e5ac 14bd f1b1 203d c8c8 ccbc 5dcd 2ebd
000003d0: ce83 84bd 16b7 cdbc 640f 23bc bf1a 6abd
000003e0: 0431 59bc f057 09bd 798b 3f3d bbc0 d53c
000003f0: f98c 603d 539f 93bc 4712 433d 093d 17bc
-0.0075281784 0.27918622 0.015952868 0.10817782 -0.00805466 0.030178322 -0.15959854 0.0025124147
-0.013316244 0.22791076 0.025990874 -0.26568836 -0.0075898888 0.044467613 0.32123074 0.06638783
0.010598377 -0.10019791 -0.024704445 -0.0031891186 0.01342111 -0.030486975 -0.11761248 0.020852255
-0.026741503 0.03697055 -0.30038896 -0.16092554 0.4380048 -0.021237334 -0.31927744 -0.11629065
-0.05444831 -0.008128835 0.021185163 -0.0033012584 -0.019823924 0.07495641 0.10242966 0.034074806
-0.022836324 0.00843138 0.032804295 0.0056144255 0.0038678811 0.03813185 -0.0001689635 0.026569614
0.032264244 -0.051554687 0.0150019 0.04181808 0.01634838 0.043231755 0.059198875 0.040133514
-0.014337837 0.0040678373 0.016744079 -0.012031974 -0.038746804 0.074480675 0.016357735 0.0059678257
0.07237117 0.0060473015 -0.011180445 -0.00017531958 0.026548 -0.07127738 -0.122392826 -0.03525297
0.026794184 0.016992524 -0.03780562 -0.021256115 0.00095643627 -0.033508807 0.0054621226 -0.020194875
-0.03537021 0.060468618 -0.017002264 -0.05017585 -0.021310113 -0.040340982 -0.05124645 -0.038342286
0.0060787434 -0.011223756 0.011109666 0.010037252 0.03006297 -0.061219 0.04600444 -0.0019704327
-0.052416593 0.007776361 0.005066016 -0.008393662 -0.0322575 0.09395925 0.10709133 0.025630746
-0.023874445 0.0043598716 0.03981836 0.017826956 -0.010089986 0.04079703 0.0041102287 0.019695435
0.038071122 -0.056849882 0.025589062 0.047814198 0.016488018 0.029971177 0.08372699 0.046445075
-0.030591065 -0.0060296366 0.043485254 -0.016287375 -0.035568908 0.10120581 0.012220291 -0.0053091785
0.062826864 -0.02395045 -0.011404677 0.0051339 0.036807362 -0.1072573 -0.099411815 -0.039069034
0.041025963 -0.004882765 -0.038811326 -0.0042017596 0.019474616 -0.036256738 -0.0017654769 -0.015570771
-0.04952394 0.058933597 -0.0111605385 -0.06199259 -0.024767395 -0.040834174 -0.07282776 -0.039781496
0.036709335 -0.010241619 -0.042732254 0.0056902836 0.020267205 -0.096363574 0.004634478 0.008249104
-0.09020642 -0.11183469 0.040006503 0.035229728 -0.022487601 -0.022263091 0.1268759 0.062693186
-0.035604417 -0.022732858 0.017386964 0.021769546 0.052854996 0.043549098 -0.036482524 0.0340878
0.033982728 -0.04243498 0.015925508 0.024789887 0.07815918 0.045643564 -0.0023358618 0.047685884
0.033139113 0.040681344 -0.06772186 -0.051321153 -0.06900283 -0.00950946 -0.04413612 0.018970162
0.051573917 0.003673676 -0.01844998 0.015091751 0.020880878 -0.08169454 -0.0995544 -0.03567381
0.033217296 0.0049126595 -0.024776714 -0.01864769 0.0034106376 -0.04098162 -0.006007746 -0.02676556
-0.038446147 0.06454547 -0.026023205 -0.042886976 -0.023405006 -0.031162245 -0.08190419 -0.04495064
0.01940031 -0.0048635076 -0.031753007 0.012085043 0.026165532 -0.08115718 -0.0011723161 0.01111164
0.08496265 0.05814073 -0.040779583 -0.03191252 0.037747175 -0.026607681 -0.1313023 -0.042591695
0.042606283 0.020243283 -0.031231314 -0.014512967 -0.021156149 -0.03932076 0.021536643 -0.037516292
-0.036297698 0.0392322 -0.024998084 -0.04267632 -0.06470452 -0.025111716 -0.0099524 -0.057154413
-0.013256315 -0.03353113 0.04676387 0.026092878 0.054821942 -0.018020308 0.047624853 -0.0092308605

context_transformer_0/ffn_layer_0/intermediate_dense/einsum/Einsum;context_transformer_0/ffn_layer_0/intermediate_dense/Relu;context_transformer_0/ffn_layer_0/intermediate_dense/add f4 [32]
00000000: 2f5b 4fbe 5521 d3bd cfef 6fbe 309a a5be
00000010: db9d aabe 5f24 e9be 85b5 92be 74c8 54be
00000020: bc4b c6be 54e5 a8be 2746 e5be 4076 f8be
00000030: 7b6f 2cbe 3ee7 6fbe 3add 97bd a417 09be
00000040: b4e9 59be cada 37be 8f8a afbb ac60 84be
00000050: 6e8a 01be 3ac0 9dbc 494b d6be 1cef d4be
00000060: 4536 9ebd 56fe 44be 4d77 53be fa82 e2be
00000070: 1694 a3be 1032 7dbe 0ec8 9dbe 06c7 e2be
-0.20249628 -0.10309092 -0.23431323 -0.32344198 -0.3332356 -0.4553556 -0.28654113 -0.20779592
-0.38729656 -0.32987463 -0.44780084 -0.48527718 -0.16839401 -0.23428056 -0.074152425 -0.13387924
-0.21280557 -0.17954555 -0.0053570936 -0.25855005 -0.12650463 -0.0192567 -0.41854313 -0.41588676
-0.07725195 -0.19237646 -0.20650978 -0.44240552 -0.31948918 -0.24726129 -0.30816692 -0.44292468

context_transformer_0/attention/norm/mul;context_transformer_0/attention/norm/add;context_transformer_0/ffn_layer_0/intermediate_dense/einsum/Einsum;context_transformer_0/ffn_layer_0/intermediate_dense/Relu;context_transformer_0/ffn_layer_0/intermediate_dense/add f4 [32, 32]
00000000: 668a 69be b58d eb3d 3c3e bb3e 074d 9e3e
00000010: 1e43 4cbd 2d74 18bd 96e8 423d b27c 633d
00000020: b1d8 b2be 0d1d 33be c414 b2be 0895 4abe
00000030: 3f48 fb3d 7040 d53d db48 7c3c 7e09 dc3d
00000040: 2209 adbe d1fe 30bf de56 c93d e81c e63b
00000050: 70b5 c3bd a4e5 413c e4f7 93be ecba 60bd
00000060: e0c8 953c cfc5 00bf 8050 ebbc 6567 4abe
00000070: 3113 443d 5442 0bbe 709c 18be 3573 81be
00000080: 8cfa bcbe 40a8 d13c 8173 3abd bf6d 613e
00000090: 8f61 a4bd 10e0 de3c fc9d 973e e946 6f3d
000000a0: 9e00 87be 0e09 c63e 5931 1abe d823 be3d
000000b0: 4f56 e2bd 8fd4 b63e 872f 023d 0252 a6bc
000000c0: 6322 b0be 3d25 9e3c db27 53bf ecdf dbbd
000000d0: 7590 7ebc 2889 083d 4055 23be 2737 a93e
000000e0: 5474 52bd d8d8 933d 9000 a8bc 80f9 82be
000000f0: 7369 f1bd 5245 3a3e b242 033e 1971 85bc
00000100: 780e 073e 4905 5cbd 2921 b73e 0def d0bd
00000110: 505b 65be b9f2 643b 4e9a 3ebd a17f b33c
00000120: 7ae2 68be 6df3 683d fe7e 813d f515 d9be
00000130: 6079 b03d e10e ebbe 1086 a73d eced ed3c
00000140: 8c10 75bd 8ba3 873e 5a7f 65be 5611 8d3d
00000150: 5ade ec3d ee95 86be 7b69 c03d 2388 133e
00000160: 8644 493e 970c f1bd cf19 4c3e 4eaf 173e
00000170: 1657 32bd 0377 e6bd baa6 46be beb1 383d
00000180: c1d2 4e3d 10d5 733d a7c1 2b3e b2e8 10be
00000190: 5568 97be eec1 4e3e 080a bf3e 0187 b1be
000001a0: 4aa7 afbe cf56 5f3d 6ea5 29bd fc74 5a3d
000001b0: 80ba 623e 9520 91bc 4e40 f0bd 2021 ed3e
000001c0: 0fa2 bcbc a63c 643e 2af8 d7bd 1256 a63e
000001d0: 7197 d53e f027 2cbd 2606 45be 6889 5c3e
000001e0: 85d8 0ebe 11e8 853b fb98 643c 8760 c1bd
000001f0: 4a72 633e ca99 873e 08f6 a53d 1836 a6bc
00000200: e04a 833e 9db5 a8be 2e59 22be c82e 97bd
00000210: 9541 5c3e ec04 6fbe 62e6 ad3e 590f 29be
00000220: 7277 fbbd f576 0c3d 8dad f5bc ef96 81bd
00000230: 3c35 393d 3adf ad3d 3752 9fbe bf4b 433e
00000240: d857 dbbd d69c 983d 6c40 d3bd 561f b53e
00000250: a3eb ffbd 144d eb3b d1b9 1e3e 6334 8a3e
00000260: a991 4cbe 3a82 153e 43bc e43d b877 20bc
00000270: 124c 153e de23 3b3d 9d3a 3abe 1d97 24be
00000280: d638 463e 2bc9 a0be 2e93 2a3e 020a 153d
00000290: 67be 0abe 5576 08be 431d 843d d14f abbd
000002a0: 3f1d 773e 6f1e f03d 6581 44be 8464 23be
000002b0: e4ed 453d 0dcb 0fbe 7a84 53be 66a8 8f3e
000002c0: 63ff 733e 54f0 62be 902f 00be 6e85 2e3e
000002d0: 9f82 963d 2249 573e 97ed 7ebe 64bb 4f3e
000002e0: 88ae 713e e795 8abe b42d 7cbd b74e df3d
000002f0: 4ce8 d03e 3d48 6bbe 69df e33c 0b36 0ebe
00000300: a584 9dbe 7958 4b3d 816b 3dbd 6842 a3bd
00000310: 1ad2 95bd a820 96bd 7d43 383d f22a a0be
00000320: 23e1 84bc 77c7 723e 9266 753e 033e 213d
00000330: 84a8 72be 1e74 f1bd 3adf 9abc 4d22 493e
00000340: 7201 903e 2f98 3c3e a950 d4be 1f0a 023e
00000350: e44a 8c3e 9489 9fbd 1ceb 733e dca2 89be
00000360: 0b3d 583e 2afd be3d d24e bc3e f31e aa3d
00000370: 366b afbb b7d2 82be a226 e2bd c275 afbd
00000380: f74c 7cbd 0b79 b03d a443 04bc bed8 37be
00000390: 7f23 81be 2d28 09be 4e8f 573e d694 53be
000003a0: f7f7 d7be c024 6a3e e8b6 58be 3da2 db3d
000003b0: dcea 7a3e f56f 95be 9f13 21bd 51ab 1abc
000003c0: 82e8 8cbe 605c 663e 86f5 763d 69a3 b83d
000003d0: d5bc babe cd17 823d 87c9 d4bb d9e2 44bd
000003e0: 84c9 463d f6d6 babe d96e 853d 8cf0 fabe
000003f0: 18b9 70bd 76a3 a6be 7dd6 03be f9a5 31be
-0.22806701 0.11501638 0.3657092 0.30918142 -0.049868695 -0.03722017 0.047585092 0.05553884
-0.34930947 -0.1749155 -0.34781468 -0.19783413 0.12269639 0.10412681 0.0153982295 0.10743998
-0.3379603 -0.6913882 0.09831022 0.007022489 -0.09556091 0.011834536 -0.28900063 -0.054865763
0.018284261 -0.5030183 -0.028724909 -0.19766004 0.047869865 -0.13599521 -0.14903426 -0.25283208
-0.36909902 0.025592923 -0.04552031 0.22014521 -0.0802642 0.02720645 0.2961272 0.058417235
-0.26367658 0.38678783 -0.15057887 0.092841804 -0.11051618 0.35709044 0.031783607 -0.020302776
-0.34401235 0.019304866 -0.8248269 -0.10736069 -0.015537371 0.033333927 -0.15950489 0.3304989
-0.05138047 0.07219094 -0.02050808 -0.25580978 -0.11787691 0.18190506 0.12818411 -0.01628928
0.13189113 -0.053715978 0.35767487 -0.10201845 -0.22398114 0.0034934713 -0.046533875 0.021911444
-0.22742644 0.056872774 0.0632305 -0.42399564 0.086169004 -0.4590979 0.08179867 0.029044114
-0.059830233 0.2649196 -0.22411862 0.06888072 0.11565848 -0.26286262 0.09395119 0.14407401
0.19655046 -0.117699794 0.1993172 0.14812967 -0.043540083 -0.112531684 -0.19399539 0.045091383
0.05049396 0.059529364 0.16773091 -0.14151266 -0.29571787 0.20191166 0.3731234 -0.34673312
-0.3430732 0.054526147 -0.04141753 0.05333422 0.22141457 -0.017715732 -0.11731015 0.46314335
-0.023026494 0.2228876 -0.105453804 0.3248754 0.41717103 -0.042030275 -0.19240627 0.21536791
-0.13949783 0.0040865024 0.013952489 -0.09442239 0.22211567 0.2648452 0.08103567 -0.020289466
0.25643063 -0.3295106 -0.15854332 -0.0738197 0.21509393 -0.23341721 0.3396483 -0.16509761
-0.12278642 0.034293134 -0.029989982 -0.063276164 0.045216784 0.08489843 -0.31117412 0.19071864
-0.10710114 0.07451789 -0.10315022 0.3537547 -0.12496116 0.0071808193 0.15500571 0.26993093
-0.1997744 0.14600459 0.111687206 -0.009794168 0.145798 0.045688502 -0.18186422 -0.1607327
0.19357619 -0.3140348 0.16657707 0.036386497 -0.13549195 -0.1332639 0.06450894 -0.08364833
0.2413225 0.11724555 -0.19189985 -0.15956312 0.048322573 -0.14042301 -0.20656005 0.28058165
0.23827891 -0.2216199 -0.12518144 0.17043087 0.07349133 0.21023992 -0.24895321 0.20286328
0.23601735 -0.2706749 -0.061567023 0.109036855 0.40802228 -0.22976775 0.027816491 -0.13887803
-0.30765262 0.04964492 -0.0462451 -0.0797165 -0.07315464 -0.073304474 0.044986237 -0.31282765
-0.016220635 0.23708902 0.23964909 0.03936578 -0.23697096 -0.11789726 -0.01890527 0.19641991
0.28126103 0.18417428 -0.4146779 0.12699173 0.27400887 -0.07789913 0.23820156 -0.26882064
0.21117036 0.09325631 0.36778885 0.08306684 -0.0053533567 -0.25551388 -0.11042525 -0.085673824
-0.061596837 0.08616837 -0.008072767 -0.17953774 -0.25222394 -0.13394232 0.2105076 -0.20662245
-0.4218137 0.22865582 -0.21163523 0.10724304 0.24503654 -0.2918698 -0.039325353 -0.009440259
-0.2752114 0.22496176 0.060292743 0.09015543 -0.36472192 0.06352196 -0.0064937505 -0.0480679
0.048532024 -0.36492127 0.06515283 -0.49011648 -0.05877027 -0.32546586 -0.1287479 -0.1734847

context_transformer_0/ffn_layer_1/intermediate_dense/einsum/Einsum;context_transformer_0/ffn_layer_1/intermediate_dense/Relu;context_transformer_0/ffn_layer_1/intermediate_dense/add f4 [32]
00000000: d71b ebbd bb09 a03c ff3c 973d 9b1c 10be
00000010: 2561 b3be 5051 a8be 0573 10be 4443 943d
00000020: f9a9 9abe 74c6 80be 1a54 eabd da93 05be
00000030: 240f 13be 105a 02be 7539 8ebe ae8f abbe
00000040: 54a7 18bd f103 0ebe 3bb2 80be de09 01be
00000050: 79a8 64be 8620 aebe 509d 0dbe d7a9 87be
00000060: 24b9 8cbe e63d 293e 21af d4bd 94d0 c2be
00000070: 12b2 91be 9727 bcbe c7ae 41be 14cb 98bd
-0.114799194 0.01953589 0.07384681 -0.14073412 -0.35035053 -0.32874537 -0.14106376 0.072393924
-0.30207804 -0.25151408 -0.11441822 -0.13044682 -0.14361244 -0.12729669 -0.2777821 -0.33508056
-0.03726895 -0.13868691 -0.2513598 -0.1260142 -0.22329892 -0.34009188 -0.13829541 -0.26496765
-0.27485 0.16527519 -0.10384966 -0.38049757 -0.2845617 -0.36748955 -0.18914329 -0.07460609

context_transformer_0/ffn_layer_0/norm/mul;context_transformer_0/ffn_layer_0/norm/add;context_transformer_0/ffn_layer_1/intermediate_dense/einsum/Einsum;context_transformer_0/ffn_layer_1/intermediate_dense/Relu;context_transformer_0/ffn_layer_1/intermediate_dense/add f4 [32, 32]
00000000: f782 64bd 08e2 21be dcf7 0dbe 81f6 cfbd
00000010: 9917 cb3d 26fc b1bd bf8f 67bc 3fce aabe
00000020: d648 94bd 6a5d c5be 35c6 083e e10f ee3c
00000030: d3df 34be feac f7bc 7639 c13d 7c51 373e
00000040: 95f8 01bd c4af 223d 9535 a2be 911e bf3d
00000050: 5aa2 ecbd 565c 703e a51b 16bd fd31 6e3e
00000060: 4b16 be3d 87e5 c23d a416 c8bd 57cd be3d
00000070: 301e fb3e e2e1 9c3e a2d2 043e 9ffb 0fbe
00000080: 7a44 5abe f9f3 1cbe 32a2 c0bd dcb4 9ebe
00000090: e11b 783d af5c 4dbe f386 c83d 93a9 0cbd
000000a0: 9095 0e3e 8874 53bd 709f 43be d4c1 27be
000000b0: 7ca8 58be b285 06be 6774 31bc 568e 593d
000000c0: b86e 48bd 71a9 76be cf32 10be bb2a d8bd
000000d0: 15bd 553e 1c70 a73e b410 133d 2fe6 78be
000000e0: ab8f 473e b368 073d ba84 fe3c a4fb e93d
000000f0: dd19 f03e 7e7c e23d 83bc c53d e399 ebbe
00000100: 1d0c b13d de81 36bf 0c31 d3bd a6de c93c
00000110: 9831 223e 1c7d d4bc 8ab7 573e aa00 60be
00000120: 68c2 623e 0c56 06be 6ad8 fcbd 49b4 de3c
00000130: 9571 5bbd dfcd fa3d 61b4 f63d 4d74 653e
00000140: ec5d 2abe 17a9 923e 3468 e2bc 49c3 d53e
00000150: 1b6a 99bd 9760 693d bb7a 183d 635f 923e
00000160: be7a d3bd 16c7 c63c 7e07 f6bd e96e 8d3d
00000170: bb69 473e ed41 303e 8d52 813d 1fb0 acbe
00000180: 2358 983c c379 9cbe 7e0a 7cbd 2caf 043e
00000190: cba4 5c3e 3991 53be 9c38 8b3e b218 7ebd
000001a0: 1f95 85be d147 48be 423f a6bd cc84 ba3d
000001b0: a372 403c f0b3 d5bc 9e72 88be 23fb 993d
000001c0: 9ee1 c0bd 845c 183e 554d a1bd 8f9b a83e
000001d0: c0d8 cbbc 5b8a 063e 207a 903e c9f4 cd3d
000001e0: afaa 2cbe f283 263e 06d7 1b3e dc5f 07bd
000001f0: aff5 f33c 901f 833e 1782 27be 4959 f4bd
00000200: b502 813d 3732 9bbd 9172 8dbe 6c31 7c3e
00000210: cc47 d7bd 19c4 2e3e ea4b 0f3e 94d7 133e
00000220: 5f9b cc3c 4e28 3bbe 2a2f cb3d 63f0 9abd
00000230: d4f4 cb3a 8e17 5b3e 50e9 d1bd bf9e 4b3d
00000240: 6b7b 59bd d8d9 97be f3aa 33be f97b 093d
00000250: 2189 213e 6455 b73d 6c29 acbe 5313 c93d
00000260: aa2b 833c 81d7 cabd 6fb2 9ebc 7dec b3be
00000270: 73b9 5b3d df24 823e 0bec ba3d 225a 8a3e
00000280: 7816 fbbc cbcc 9cbe 247d 6dbe 9b9e 803e
00000290: 5691 48bc 3602 dcbb 007f 4739 52d4 dc3d
000002a0: 1cf4 8fbd a17e 323e 9443 dbbd 29fb eebd
000002b0: 45f4 99be 04c1 bc3d d96c 1b3e 359f 81bd
000002c0: f6ec 5b3e 9fdb a9be 6dd2 d4be e179 683c
000002d0: b04b 48be 7882 4b3d e45d 503e 82c5 3fbd
000002e0: 08a8 efbd 3b77 5cbd 9649 943e 2b59 5f3d
000002f0: d116 a8be eeff a8bd 7993 2d3c 0952 74bd
00000300: f2fb 353d 7533 0f3d e9f5 7cbe 6870 723d
00000310: 89fb 4f3e d520 58be a252 0dbe bc94 18bc
00000320: ae26 5ebc cf4a 7e3c 904b a43e 0eb8 9fbe
00000330: b12b 25be deff c23e 668a 6bbd 1462 4b3e
00000340: e13b 383d b979 873d 4679 45bd 4295 dcbc
00000350: 4bf5 b7be 2d4b 89bd 100a d13d 8efc 963e
00000360: 25fb e43e e918 6d3e fd12 f1bc 5ea0 81be
00000370: 14cf 983e 13ea 14be 3ae6 ac3d 3f6d c9bd
00000380: 323b 8bbd c99c 133e 164e 813e 99e4 703c
00000390: a59c 363e a8d9 1bbe a0c8 593e ccdd da3d
000003a0: 9518 ac3e ec55 98be d523 b43d 3882 85be
000003b0: 36cf eebd 811c b43a ff8d c1bd b2d8 273e
000003c0: 64d6 003f 04f1 af3e fdbf 533e 6563 4d3d
000003d0: c0cd ac3d 0fdf 393e ee7f 393e 6db4 ef3e
000003e0: 2a83 8fbd 8b01 d03d e72a 8c3e a5cc 9a3a
000003f0: 2d9f 9a3e 61d2 263c b353 663d 6539 7bbe
-0.05578896 -0.1580888 -0.13864082 -0.10154439 0.0991661 -0.086906716 -0.014133393 -0.33360478
-0.07240455 -0.38547832 0.1335686 0.029060306 -0.17663507 -0.030233856 0.09434788 0.17902178
-0.031731207 0.039718404 -0.31681505 0.09332002 -0.115544036 0.23472723 -0.036647458 0.23261257
0.09281596 0.09516435 -0.09769943 0.09316509 0.4904647 0.30641085 0.12970975 -0.1406083
-0.21315184 -0.15327443 -0.09405936 -0.3099736 0.060573462 -0.20054887 0.097913645 -0.034341406
0.13924241 -0.051624805 -0.1910379 -0.16382533 -0.21158022 -0.13136938 -0.010830975 0.053114258
-0.048933715 -0.24088074 -0.14081882 -0.10555025 0.2087291 0.3270272 0.0359046 -0.24306558
0.19488399 0.033058833 0.031069148 0.1142495 0.46894732 0.11058901 0.096550964 -0.46015844
0.086448886 -0.7129191 -0.10312089 0.0246423 0.15839231 -0.025938563 0.21066108 -0.21875253
0.22144473 -0.13118762 -0.12345965 0.027185576 -0.053575117 0.12246298 0.12046123 0.22407646
-0.16637391 0.2864463 -0.027637579 0.41750553 -0.07490941 0.05697688 0.03722642 0.285884
-0.103261456 0.024264853 -0.12013148 0.0690592 0.19473927 0.17212649 0.063145734 -0.3372812
0.018596714 -0.30561647 -0.061533444 0.12957448 0.21547239 -0.20660867 0.27191627 -0.06203527
-0.26090333 -0.19558646 -0.08117534 0.0910736 0.0117460815 -0.026086777 -0.26649946 0.07518604
-0.09418033 0.14879042 -0.07876078 0.32931182 -0.024883628 0.13138716 0.28218174 0.10056455
-0.16861986 0.1626127 0.15218744 -0.033050403 0.029780237 0.25610018 -0.16358219 -0.11931092
0.062993445 -0.07577937 -0.2762647 0.24628228 -0.10511741 0.17066993 0.13993803 0.14437705
0.02497643 -0.18277094 0.09921105 -0.075653814 0.0015560635 0.21395704 -0.10249579 0.04971194
-0.053096216 -0.2965839 -0.1754568 0.033565495 0.15774967 0.08951834 -0.33625352 0.09818139
0.016012032 -0.09904385 -0.019372193 -0.35141364 0.053643655 0.25418755 0.09127053 0.2702189
-0.030650362 -0.30624995 -0.23192269 0.25121006 -0.012241682 -0.0067141308 0.0001902543 0.107826844
-0.07028982 0.17431118 -0.10706249 -0.11668999 -0.30069175 0.09216502 0.15178241 -0.063291945
0.21477112 -0.3317537 -0.41566792 0.014189214 -0.19560122 0.04968497 0.20348316 -0.046819218
-0.11701971 -0.053824645 0.28962392 0.054528397 -0.32829908 -0.0825194 0.010594242 -0.059648547
0.044429727 0.034961183 -0.24703182 0.05918923 0.20310797 -0.21106274 -0.13801053 -0.009312805
-0.013559027 0.015520765 0.320889 -0.3119511 -0.16129948 0.38085836 -0.057505034 0.19861633
0.04497898 0.06615014 -0.04821136 -0.02692664 -0.3592933 -0.06703792 0.102069974 0.2948956
0.44722858 0.23154034 -0.029428 -0.25317663 0.29845488 -0.14542417 0.0844235 -0.0983529
-0.067984 0.14415278 0.25254887 0.014702939 0.17833193 -0.15219748 0.21267939 0.10686836
0.33612505 -0.29753053 0.08795897 -0.26075912 -0.11660616 0.0013741405 -0.09450912 0.16391256
0.50327134 0.34363568 0.20678706 0.050143618 0.08437681 0.18151496 0.18115208 0.4681734
-0.070074394 0.10156544 0.27376482 0.0011810256 0.30199566 0.010181994 0.056232166 -0.24533613

context_transformer_0/ffn_layer_2/intermediate_dense/einsum/Einsum;context_transformer_0/ffn_layer_2/intermediate_dense/Relu;context_transformer_0/ffn_layer_2/intermediate_dense/add f4 [32]
00000000: f05e 0bbd 3bb6 753d 4ebe 68be f098 4abd
00000010: 104e 20be d46b efbe a34e 99bd a01c 9fbe
00000020: 4ebe 86be 410b 98be 4aa8 0dbe b8e6 f83d
00000030: e525 24be 8c5f 8fbd 7c0c 343e efb6 4f3d
00000040: 764b d4be 40d9 9fbe b5d7 763e a482 3a3e
00000050: de7a ebbd e640 8fbe fe1b 07bd b8c8 ee3b
00000060: c8a8 71be 16bc 55bd 7374 213d 99cd 8c3d
00000070: 34b3 f5bd 92e1 283d e2f0 5abd 4bc9 8dbe
-0.034026086 0.05998824 -0.22728845 -0.04946226 -0.15654778 -0.46761954 -0.07485702 -0.31076527
-0.26317066 -0.29696086 -0.13833728 0.12153381 -0.1603008 -0.07000646 0.17582887 0.05071157
-0.41463822 -0.31220436 0.24105723 0.18213898 -0.114980444 -0.279792 -0.03298568 0.007287111
-0.23599541 -0.052181326 0.039417695 0.06875152 -0.11997071 0.041230746 -0.05345238 -0.27692637

context_transformer_0/ffn_layer_1/norm/mul;context_transformer_0/ffn_layer_1/norm/add;context_transformer_0/ffn_layer_2/intermediate_dense/einsum/Einsum;context_transformer_0/ffn_layer_2/intermediate_dense/Relu;context_transformer_0/ffn_layer_2/intermediate_dense/add f4 [32, 32]
00000000: 92b3 76be 7704 99bd e7a3 78be bf38 883c
00000010: a6d3 f73e a2a6 b0bd 5036 de3b 1902 8fbe
00000020: 26b4 18bc 3878 283e 944b cabd d6b3 b6bd
00000030: cc44 32be 6f4b c73e 1a3e e8bd 208f bc3d
00000040: 1eb5 eb3c 9745 a83d 0f92 1a3a 1d16 07bd
00000050: a3c2 043b dfad 3dbd 8490 e93d f8ec 903c
00000060: 21a6 3c3e ef67 9bbd ef9a 823d f039 c2bd
00000070: 0b8c 74be 2c8c 2eb9 ac81 f0b9 f7e7 e93b
00000080: ad2b 953a f069 e83d e7e9 b5bd 1bad 6fbe
00000090: dd46 003e d65f 24be 6287 05be bc3a 393c
000000a0: 4634 093d 4cf8 5cbc 9903 cd3d c35e fcbe
000000b0: 98bf 893c c1c9 5e3e e6e5 463e a664 293d
000000c0: 0e10 86bd a1a6 d03d c915 1c3e 5f8b 273d
000000d0: 4987 8cbc ef1d 65be 61cd bcbd 414d 963e
000000e0: 8c3c b7bc 4b1b d43d 6e5a 9e3d 4af2 4ebc
000000f0: f2c2 2b3d 4095 f13d 0616 c33d 6e39 903c
00000100: aa6c 0b3c 8847 e0bc a743 143e 0cc9 e3bb
00000110: f0c2 84be 6200 cfbd 82b0 043e 2c06 d138
00000120: d4b1 f9bc 2a28 1e3e ab29 0f3e 3a84 b5bd
00000130: b4bb 12be 31b6 93be 10ed e7bd e3eb f4bd
00000140: 1cfb 0e3e a847 7f3e d33c d7be e4c3 643d
00000150: 6a9f 9b3e 761d 013e 981b 403e 4101 a5bd
00000160: c22b 3d3c 0288 593e 2611 3a3e 6415 e8bc
00000170: 1e61 8cbe 2420 4d3d bd89 fdbd 8002 ae3c
00000180: d165 e3bc 3f2a 82bd e873 67bc 1c69 103b
00000190: b3db 733d 527a 41bd af0d 253a e8f4 babd
000001a0: 593c 2b3d 8291 85bd d932 6f3b b79f b53d
000001b0: a5f5 633d 512b 123c a52e 353d d820 f03c
000001c0: e374 03bc 4cf7 b7bc f23c 753d 1f62 f7bc
000001d0: e0b4 ae3d b1e5 88bb ed0d 8e3d 4994 53bd
000001e0: 1c6e f1bc 2282 ac3d d973 1039 eacf fdbc
000001f0: e57a 363d eab4 90bc 9aea 393d 3b6f 4dbd
00000200: ed3d 9a3d 5d9a 8bbd f508 ec3d a89d 2fbe
00000210: 41a0 563e 2998 0cbf 3bd2 73bb 3e1f a73d
00000220: 978c 0dbe c62e b5bd c704 4bbe faec 1bbd
00000230: e8b0 223d 5ccd 823e 1d36 28be 9feb 99bb
00000240: b67c 903e 9ed5 773d 8612 0e3e 7df4 04be
00000250: 5cc3 3fbe 02fc 0fbe 2bdd abbd d20c e1bd
00000260: 7b1a 963d f31f bd3b 3975 133e 884a 4b3d
00000270: b913 f53d ad60 103e 6e5c 2dbe 15cf f8bd
00000280: 1aed a53d 9d50 98be dc05 a13c c0a1 473d
00000290: 6427 d7be ff69 e7bc 9072 42bd 3d89 cabd
000002a0: f36f 80bd 14be c53d 2def 083d 9212 44be
000002b0: 68e4 523d 686c 12be b5a7 6a3e e7d1 493e
000002c0: 1a7f 1bbd f340 583e b132 cabd ccab 1d3e
000002d0: db62 1bbe 6bb2 95be f3f7 8ebd 884f cbbe
000002e0: ef32 aa3d 5272 55be 0dee 3b3c eae9 a23d
000002f0: 4836 513a 7f40 3cbe 10fa 123d d511 f93d
00000300: 0a25 6fbd cc43 15bd 16d7 2cbe 11b6 7e3e
00000310: 1d4b 4b3d 7536 63be 66e9 8a3d c730 003e
00000320: f441 7b3e 5a60 d4be 3551 ba3d 2ea8 853e
00000330: 08a9 9b3d cd8d a8bb bc85 8a3d 39e9 183e
00000340: 53f0 58bd c2e2 22be c4b7 7d3e dfbe 4dbc
00000350: 9bfd 763e f3f5 9abd 71c6 103d c7c9 90be
00000360: 1fa4 8bbd a0b6 3dba 8f61 19bc e51d c4be
00000370: 2733 6e3e 9f0d 4a3c d8d2 ea3d d5f5 fdbd
00000380: 8984 abbe 1933 9f3b 7f2a 843e 4e34 043d
00000390: 7392 40be 158d 863c c462 193e 59b8 403d
000003a0: f892 c33c c8db fcbc c13b a13e 35af 5abe
000003b0: 3013 9bbe 50a1 00be 52ce 2fbe 34b0 723c
000003c0: c3d8 943e d1a8 f6bd 6b80 5dbd 1fc4 6f3a
000003d0: 5cfd 0e3d d32c db39 f071 fd3c 9c2d 46be
000003e0: 8644 2ebe 5299 43bd 62aa b23e 2644 2cbd
000003f0: 8344 fbbd 15a5 a2bd 8451 68be f40c 86bd
-0.24091938 -0.07471555 -0.24281274 0.016628621 0.48403662 -0.08625533 0.006781377 -0.27931288
-0.0093202945 0.1645211 -0.09877697 -0.0892102 -0.17409056 0.3892474 -0.1133997 0.092069864
0.028772887 0.08216398 0.0005896398 -0.032980073 0.0020257614 -0.046308395 0.11404517 0.01769112
0.18422748 -0.07588183 0.063772075 -0.09483707 -0.23881547 -0.00016646151 -0.0004587298 0.007138248
0.0011380814 0.11348331 -0.08882504 -0.23405878 0.12527032 -0.16052184 -0.13039926 0.011305507
0.033497117 -0.013486933 0.10010452 -0.49291047 0.016814992 0.2175665 0.19423637 0.04135575
-0.06546031 0.10188032 0.15242685 0.0409044 -0.017154353 -0.223747 -0.092188604 0.29355815
-0.022367738 0.10356768 0.07732092 -0.012631008 0.04193396 0.11796045 0.09525685 0.01760551
0.008509794 -0.027377859 0.14478932 -0.006951457 -0.25929976 -0.10107495 0.12957957 9.967046e-05
-0.030480303 0.15445009 0.13980739 -0.08863111 -0.14329416 -0.2884994 -0.11324513 -0.11959054
0.13962978 0.24929678 -0.42038593 0.05585088 0.3039506 0.12608895 0.18760526 -0.0805688
0.011546077 0.21243289 0.18170604 -0.028330512 -0.27417845 0.05007948 -0.12379787 0.021241426
-0.02775851 -0.06355714 -0.014126755 0.0022035306 0.059535693 -0.047235794 0.00062962895 -0.091287434
0.0418056 -0.06521894 0.0036498813 0.08868354 0.055654187 0.00892146 0.044233937 0.029312536
-0.008023473 -0.022456788 0.059872575 -0.030198155 0.08530593 -0.004177772 0.0693625 -0.051655088
-0.02947145 0.08423258 0.00013776067 -0.03098293 0.044550795 -0.017664392 0.04538975 -0.050154906
0.07531343 -0.06816552 0.11525146 -0.17149985 0.2095957 -0.5491968 -0.0037204165 0.08160256
-0.13823162 -0.08846812 -0.19826041 -0.038067795 0.039719492 0.25547302 -0.16426893 -0.0046972777
0.28220147 0.060506456 0.13874254 -0.1298389 -0.18726867 -0.14060977 -0.08391794 -0.109887734
0.073292695 0.005771631 0.14400186 0.049631625 0.119666524 0.14099379 -0.1692979 -0.12148873
0.08101864 -0.29749003 0.019656114 0.04873824 -0.4202224 -0.028248785 -0.047472537 -0.098894574
-0.062713526 0.09655395 0.03343122 -0.19147709 0.051487356 -0.14299166 0.22915538 0.19708978
-0.03796301 0.21118526 -0.0987295 0.15397567 -0.15174429 -0.29237685 -0.06980886 -0.39709115
0.08310496 -0.20844391 0.01147033 0.07954772 0.0007980806 -0.18383978 0.03588301 0.12161604
-0.058384933 -0.03644161 -0.16878924 0.2487414 0.04963218 -0.22188742 0.067827985 0.12518607
0.24536878 -0.4147976 0.0909752 0.26104873 0.076005995 -0.005143857 0.06763789 0.14932717
-0.052963566 -0.15906814 0.24777132 -0.012557714 0.2412018 -0.07566442 0.0353455 -0.28278944
-0.06818413 -0.0007236991 -0.009361639 -0.38304058 0.232617 0.012332349 0.114659965 -0.12400404
-0.33499554 0.0048583862 0.25813672 0.032276444 -0.18805866 0.016424695 0.14979082 0.047050808
0.023873791 -0.030866519 0.314909 -0.21355899 -0.30288076 -0.12561536 -0.17168549 0.014812518
0.29071626 -0.12043918 -0.054077547 0.0009146351 0.03490959 0.00041804332 0.030938119 -0.19353336
-0.17018327 -0.04775364 0.34895617 -0.04205718 -0.12268927 -0.07941643 -0.22687346 -0.06545439

context_transformer_0/ffn_layer_3/intermediate_dense/einsum/Einsum;context_transformer_0/ffn_layer_3/intermediate_dense/Relu;context_transformer_0/ffn_layer_3/intermediate_dense/add f4 [32]
00000000: bc15 34bc 2469 ffbd 5896 95be b2b0 683c
00000010: c95f 46be b388 48be 9fc4 943c c9d7 c9bd
00000020: bf84 e1bd b4df 95bd 5feb c7bd 1d50 07be
00000030: 129f 10be ebf8 86be bba8 adbd eb6f 24ba
00000040: 436b 52bd 2f10 92bd ceab c1bd 7404 313d
00000050: 8aab f0bd d693 84bd 0277 2cbe 5add 91bd
00000060: 813d 33be 1ca8 57be 3588 153d 2d0f 76bd
00000070: 077a b8bd a98d ecbd dbf5 9ebd be95 35be
-0.01099151 -0.12471226 -0.29216266 0.014202284 -0.19372477 -0.19583397 0.018160162 -0.09855611
-0.110116474 -0.073180586 -0.0976169 -0.13214155 -0.1412318 -0.26361784 -0.084794484 -0.00062727806
-0.051371824 -0.07131993 -0.09456597 0.043217137 -0.117514685 -0.0647351 -0.16842273 -0.071222976
-0.1750393 -0.21060222 0.03650685 -0.060073067 -0.0900765 -0.11550457 -0.07761737 -0.17732903
